app/src/main/assets/priority_model.tflite (tflite, 3204 bytes, 6 tensors)

arith.constant f4 [3, 8]
00000000: 243c 4abd 0a47 3abf 92b1 993e 855c 87be
00000010: b3ca a53d a16e 2c3f b39b d6be 7992 1dbf
00000020: 75c7 c73e 0ae6 903e 828e f5bd f557 8fbe
00000030: 6961 47bf 1a52 13bf a4d1 153f 6ba7 1cbf
00000040: 8a35 3a3f 74c0 fdbe 64f0 15bf 29d4 24bf
00000050: c807 c23e 87eb 083f 8384 0f3f 5ecc f43e
-0.04937376 -0.72764647 0.30018288 -0.26437774 0.080953024 0.67356306 -0.41915664 -0.61551625
0.3901936 0.28300506 -0.11990072 -0.27996793 -0.7788301 -0.5754715 0.5852301 -0.6119296
0.72737944 -0.49560893 -0.5856993 -0.6438623 0.37896562 0.53484386 0.5606157 0.4781217

arith.constant1 f4 [8, 16]
00000000: c11a 9bbe d182 77be 2a63 d63e 783a 99be
00000010: 5ecf 123e 7271 ba3c 76c7 043f a719 4d3e
00000020: 162f c2be 0bb4 ebbe 50ef ffbd 4fd4 173f
00000030: 494b c9be 737d ccbe 493f 5bbe 296f b93e
00000040: 7bcd 18be b4ac 563e 9e8e 423e e0e5 da3e
00000050: 46ca 823d 40f4 0ebd ac9c a8be bef6 86be
00000060: fe6e dcbd 4cfd b33e b602 8d3e 7ebc 04bf
00000070: 1715 8e3e 6476 fabe a9c9 9fbe a24b 64bc
00000080: e12b 71be 1a87 8f3e 9ac4 2fbd a2cf 01be
00000090: 6b85 533d f486 ad3e b15d 07be 21ff 73be
000000a0: 9d4e 2fbd 7316 2a3e f3ef bbbe 15f0 6cbe
000000b0: edba 713e 4c19 53be 6827 b8be e742 91be
000000c0: fe64 33be 16c5 d8be 42a7 8d3e e103 39bc
000000d0: 215d 44be 318b 983e 5309 23be 5eaa d6be
000000e0: 79b0 8dbe 2125 9d3e f74b b1be 5595 9d3e
000000f0: 4bb6 893e de78 50bd 1a32 b9be b239 c23e
00000100: dc5d 4cbd 5b14 f4bd 6d1d 07be c185 cdbe
00000110: e61d 593e b41f 093f f2ba 13be b623 1bbe
00000120: c5a9 85be 39b7 163f 5d4d 35be 9a59 a43e
00000130: d91c 09be c733 f8bd f79f 013e 275c 8bbd
00000140: 2d0b d9be 7a03 0c3f 633b d7be c172 143e
00000150: 900a 20bc a011 b6be ce23 bf3e 122c 0fbe
00000160: 957e bb3e 0fd4 da3e 4bb9 22be 8af2 413d
00000170: d4c3 003f ef6f 303e a5d7 ac3e e63c cebe
00000180: 5335 ed3e add9 84be 09c3 c43e 53b1 16be
00000190: a37d 5fbe 28fa bf3e 511d c03e 0df9 f5bd
000001a0: d5c8 abbe 4a9f bebd 64ea de3e 8eb6 453d
000001b0: e2ca df3e ea0b 03bf 3795 903e dd42 2d3d
000001c0: d428 913e dd90 c1be fdf2 853d 06da 0bbf
000001d0: 2d14 c83e e047 e63e f99a 853e 1c4d 8f3e
000001e0: c30e 16be 273c 763e 8174 39be f51d 023e
000001f0: e75a 5ebe 119f 49bd cc69 dc3e de69 9f3e
-0.3029385 -0.24170996 0.4187253 -0.2992742 0.14336917 0.022759173 0.51866853 0.20029317
-0.3792655 -0.460358 -0.12496817 0.5930833 -0.3931525 -0.3993946 -0.2141086 0.3621762
-0.14922135 0.20964319 0.18999717 0.42753506 0.06386237 -0.034900904 -0.3293203 -0.26360124
-0.107633576 0.35154188 0.2754113 -0.51850116 0.27750465 -0.4891845 -0.31208542 -0.013934048
-0.23551895 0.28032762 -0.042912103 -0.12676862 0.05164091 0.33892024 -0.13219334 -0.23827793
-0.04279958 0.16610126 -0.36706504 -0.23138459 0.23606463 -0.20615119 -0.35967565 -0.28371355
-0.17518994 -0.42337865 0.2766667 -0.011292429 -0.19176151 0.29793695 -0.15921526 -0.41926855
-0.276737 0.3069239 -0.3462827 0.30777994 0.2689689 -0.050896518 -0.36171037 0.37934643
-0.0498942 -0.11917945 -0.13194819 -0.4014111 0.21202812 0.53564 -0.14426783 -0.15150341
-0.26106086 0.58873326 -0.17705293 0.3209961 -0.13389911 -0.12119251 0.12658678 -0.06804686
-0.4239134 0.54692805 -0.42037496 0.144969 -0.009768143 -0.35560322 0.37332004 -0.13981655
0.36620012 0.42739913 -0.15890996 0.047350444 0.5029881 0.172302 0.33758274 -0.40280837
0.46329746 -0.25947323 0.3843005 -0.14716081 -0.2182527 0.37495542 0.37522367 -0.12010393
-0.3355166 -0.09307726 0.435382 0.0482698 0.43709475 -0.51190054 0.28238842 0.042300094
0.28351462 -0.37805834 0.06540487 -0.5462955 0.39077893 0.4497671 0.26094797 0.27988517
-0.14654069 0.24046384 -0.18110849 0.1270674 -0.21714364 -0.049223963 0.43049467 0.31135458

arith.constant2 f4 [3]
00000000: 62ec c3bd ca83 05bd 8bfa a63d
-0.09566571 -0.032596387 0.08153256

sequential_1/dense_1_2/BiasAdd/ReadVariableOp f4 [8]
00000000: 170a 073e 1046 6fbd 0205 83bd 7996 93bd
00000010: dbd0 653d 0563 253d b0ec 663d d88b 713d
0.13187443 -0.058416426 -0.063974395 -0.07206435 0.056107383 0.040377636 0.056378067 0.058971256

sequential_1/dense_1/BiasAdd/ReadVariableOp f4 [16]
00000000: ccac bd3c 28bd 58bd 4c0f ce3c 35fd 82bb
00000010: 4ad3 a73d 6eb9 c23d 43fe e73b cf15 0a3d
00000020: 7360 b2bc c851 43bd f403 de3c 78ec 8dbc
00000030: aee1 3cbd 2403 9ebb 9c49 4cbd 359c 903d
0.023153685 -0.05291477 0.025153778 -0.00399747 0.08194597 0.09508024 0.007079871 0.033712205
-0.021774506 -0.047685415 0.027101494 -0.017324671 -0.046113662 -0.0048221517 -0.049874887 0.07061044

sequential_1/dense_1/MatMul f4 [16, 6]
00000000: 678a ddbe 51c8 433e b882 83bd 8b39 27bc
00000010: 7a13 013f 5716 ac3e 4634 7b3e 4988 1d3e
00000020: 9803 eb3c 7347 1b3d 9593 c03e aeb6 433d
00000030: 07ac 3c3e 4fc7 ce3e 74ac 09bd 4655 e43d
00000040: 5664 1cbe d19d 97bd c40e debe 20d0 8c3e
00000050: 5be7 a7be 49cf 09bf e5d3 e6be e312 fdbc
00000060: d7ad 013f 84b9 73be 1d4c 413e 6f9d 123f
00000070: 8d7f 203e b895 003f 3a1a ce3d 1a2a fabe
00000080: 878f 08bf cc5b 153f 8ec9 ccbe 3403 c6be
00000090: ea1c 8a3e c30b 04bf 691c ed3e 4edc d8be
000000a0: 7012 033f 3cdc b53e e55d 5dbe 47a0 ac3e
000000b0: a6be e13d 92ef 3bbe 828e d73e 26a3 0ebf
000000c0: a63e 0b3e e47d f43e 6afb 953e 1846 b13d
000000d0: a95c 81be d84c 6f3e 189d f0be e43b 4b3d
000000e0: 94cb b13d d4a9 27be a1bd cbbe 8033 73bd
000000f0: f9eb 0a3f a6cb 0e3d e337 063e 30a7 8dbe
00000100: 7003 b6be 4d4b f9bd 0f30 d83e 4850 cc3e
00000110: 2f4a 7bbe df56 cfbc dc7f 333c 5eb5 aa3e
00000120: 4ce5 c53e f281 823e 7d2b be3d 1814 843d
00000130: da4e 073f e101 d13e 18d6 f43e 53ab da3e
00000140: ddfc c03e b5e6 e33e f29f a13e dc3c 483e
00000150: 581d 18be 74f9 a4bd 763f db3e e011 84be
00000160: 3c1c 4a3e 2f6b 3ebd 865a 0a3f de37 0fbb
00000170: 9f49 b7bd 7bc1 0a3f 35cd 693e e34b c93d
-0.43269655 0.19119383 -0.06421417 -0.01020659 0.50420344 0.33610794 0.2453166 0.1538402
0.028688237 0.037909936 0.37612596 0.04778164 0.18424998 0.40386435 -0.03361173 0.11149077
-0.1527265 -0.07403148 -0.4337064 0.27502537 -0.32793698 -0.5383192 -0.45083538 -0.030892795
0.50655884 -0.23801237 0.18876691 0.57271475 0.15673657 0.5022845 0.10063596 -0.48860246
-0.53344005 0.58343196 -0.39997524 -0.3867432 0.26975185 -0.51580447 0.46310738 -0.4235558
0.5120001 0.35519588 -0.21617849 0.33716032 0.110226914 -0.18353108 0.42100912 -0.55717695
0.13598117 0.47752297 0.29293376 0.086559474 -0.25266007 0.23369157 -0.46994853 0.049617663
0.086814076 -0.16373378 -0.39793113 -0.059375286 0.54266316 0.034862183 0.13107257 -0.27666616
-0.35549498 -0.121725656 0.42224166 0.39905 -0.24540018 -0.025309978 0.010955777 0.33341497
0.38651502 0.25489765 0.092856385 0.06449145 0.5285469 0.40821746 0.4781959 0.42708835
0.3769292 0.44511953 0.3156734 0.19554466 -0.14854944 -0.08055392 0.42821854 -0.25794888
0.19737333 -0.046488937 0.5404438 -0.0021853368 -0.08949589 0.5420148 0.22832187 0.09828927
